{"keras_version": "2.0.4", "config": {"input_layers": [["input_1", 0, 0]], "name": "resnet50", "layers": [{"name": "input_1", "config": {"sparse": false, "name": "input_1", "dtype": "float32", "batch_input_shape": [null, 224, 224, 3]}, "class_name": "InputLayer", "inbound_nodes": []}, {"name": "zero_padding2d_1", "config": {"padding": [[3, 3], [3, 3]], "trainable": true, "name": "zero_padding2d_1", "data_format": "channels_last"}, "class_name": "ZeroPadding2D", "inbound_nodes": [[["input_1", 0, 0, {}]]]}, {"name": "conv1", "config": {"bias_initializer": {"config": {}, "class_name": "Zeros"}, "trainable": true, "kernel_regularizer": null, "activity_regularizer": null, "bias_regularizer": null, "filters": 64, "bias_constraint": null, "dilation_rate": [1, 1], "kernel_initializer": {"config": {"distribution": "uniform", "scale": 1.0, "mode": "fan_avg", "seed": null}, "class_name": "VarianceScaling"}, "kernel_size": [7, 7], "data_format": "channels_last", "kernel_constraint": null, "padding": "valid", "name": "conv1", "strides": [2, 2], "use_bias": true, "activation": "linear"}, "class_name": "Conv2D", "inbound_nodes": [[["zero_padding2d_1", 0, 0, {}]]]}, {"name": "bn_conv1", "config": {"epsilon": 0.001, "momentum": 0.99, "gamma_regularizer": null, "gamma_initializer": {"config": {}, "class_name": "Ones"}, "center": true, "beta_regularizer": null, "trainable": true, "moving_variance_initializer": {"config": {}, "class_name": "Ones"}, "scale": true, "axis": 3, "gamma_constraint": null, "beta_constraint": null, "name": "bn_conv1", "beta_initializer": {"config": {}, "class_name": "Zeros"}, "moving_mean_initializer": {"config": {}, "class_name": "Zeros"}}, "class_name": "BatchNormalization", "inbound_nodes": [[["conv1", 0, 0, {}]]]}, {"name": "activation_1", "config": {"trainable": true, "name": "activation_1", "activation": "relu"}, "class_name": "Activation", "inbound_nodes": [[["bn_conv1", 0, 0, {}]]]}, {"name": "max_pooling2d_1", "config": {"pool_size": [3, 3], "strides": [2, 2], "padding": "valid", "trainable": true, "name": "max_pooling2d_1", "data_format": "channels_last"}, "class_name": "MaxPooling2D", "inbound_nodes": [[["activation_1", 0, 0, {}]]]}, {"name": "res2a_branch2a", "config": {"bias_initializer": {"config": {}, "class_name": "Zeros"}, "trainable": true, "kernel_regularizer": null, "activity_regularizer": null, "bias_regularizer": null, "filters": 64, "bias_constraint": null, "dilation_rate": [1, 1], "kernel_initializer": {"config": {"distribution": "uniform", "scale": 1.0, "mode": "fan_avg", "seed": null}, "class_name": "VarianceScaling"}, "kernel_size": [1, 1], "data_format": "channels_last", "kernel_constraint": null, "padding": "valid", "name": "res2a_branch2a", "strides": [1, 1], "use_bias": true, "activation": "linear"}, "class_name": "Conv2D", "inbound_nodes": [[["max_pooling2d_1", 0, 0, {}]]]}, {"name": "bn2a_branch2a", "config": {"epsilon": 0.001, "momentum": 0.99, "gamma_regularizer": null, "gamma_initializer": {"config": {}, "class_name": "Ones"}, "center": true, "beta_regularizer": null, "trainable": true, "moving_variance_initializer": {"config": {}, "class_name": "Ones"}, "scale": true, "axis": 3, "gamma_constraint": null, "beta_constraint": null, "name": "bn2a_branch2a", "beta_initializer": {"config": {}, "class_name": "Zeros"}, "moving_mean_initializer": {"config": {}, "class_name": "Zeros"}}, "class_name": "BatchNormalization", "inbound_nodes": [[["res2a_branch2a", 0, 0, {}]]]}, {"name": "activation_2", "config": {"trainable": true, "name": "activation_2", "activation": "relu"}, "class_name": "Activation", "inbound_nodes": [[["bn2a_branch2a", 0, 0, {}]]]}, {"name": "res2a_branch2b", "config": {"bias_initializer": {"config": {}, "class_name": "Zeros"}, "trainable": true, "kernel_regularizer": null, "activity_regularizer": null, "bias_regularizer": null, "filters": 64, "bias_constraint": null, "dilation_rate": [1, 1], "kernel_initializer": {"config": {"distribution": "uniform", "scale": 1.0, "mode": "fan_avg", "seed": null}, "class_name": "VarianceScaling"}, "kernel_size": [3, 3], "data_format": "channels_last", "kernel_constraint": null, "padding": "same", "name": "res2a_branch2b", "strides": [1, 1], "use_bias": true, "activation": "linear"}, "class_name": "Conv2D", "inbound_nodes": [[["activation_2", 0, 0, {}]]]}, {"name": "bn2a_branch2b", "config": {"epsilon": 0.001, "momentum": 0.99, "gamma_regularizer": null, "gamma_initializer": {"config": {}, "class_name": "Ones"}, "center": true, "beta_regularizer": null, "trainable": true, "moving_variance_initializer": {"config": {}, "class_name": "Ones"}, "scale": true, "axis": 3, "gamma_constraint": null, "beta_constraint": null, "name": "bn2a_branch2b", "beta_initializer": {"config": {}, "class_name": "Zeros"}, "moving_mean_initializer": {"config": {}, "class_name": "Zeros"}}, "class_name": "BatchNormalization", "inbound_nodes": [[["res2a_branch2b", 0, 0, {}]]]}, {"name": "activation_3", "config": {"trainable": true, "name": "activation_3", "activation": "relu"}, "class_name": "Activation", "inbound_nodes": [[["bn2a_branch2b", 0, 0, {}]]]}, {"name": "res2a_branch2c", "config": {"bias_initializer": {"config": {}, "class_name": "Zeros"}, "trainable": true, "kernel_regularizer": null, "activity_regularizer": null, "bias_regularizer": null, "filters": 256, "bias_constraint": null, "dilation_rate": [1, 1], "kernel_initializer": {"config": {"distribution": "uniform", "scale": 1.0, "mode": "fan_avg", "seed": null}, "class_name": "VarianceScaling"}, "kernel_size": [1, 1], "data_format": "channels_last", "kernel_constraint": null, "padding": "valid", "name": "res2a_branch2c", "strides": [1, 1], "use_bias": true, "activation": "linear"}, "class_name": "Conv2D", "inbound_nodes": [[["activation_3", 0, 0, {}]]]}, {"name": "res2a_branch1", "config": {"bias_initializer": {"config": {}, "class_name": "Zeros"}, "trainable": true, "kernel_regularizer": null, "activity_regularizer": null, "bias_regularizer": null, "filters": 256, "bias_constraint": null, "dilation_rate": [1, 1], "kernel_initializer": {"config": {"distribution": "uniform", "scale": 1.0, "mode": "fan_avg", "seed": null}, "class_name": "VarianceScaling"}, "kernel_size": [1, 1], "data_format": "channels_last", "kernel_constraint": null, "padding": "valid", "name": "res2a_branch1", "strides": [1, 1], "use_bias": true, "activation": "linear"}, "class_name": "Conv2D", "inbound_nodes": [[["max_pooling2d_1", 0, 0, {}]]]}, {"name": "bn2a_branch2c", "config": {"epsilon": 0.001, "momentum": 0.99, "gamma_regularizer": null, "gamma_initializer": {"config": {}, "class_name": "Ones"}, "center": true, "beta_regularizer": null, "trainable": true, "moving_variance_initializer": {"config": {}, "class_name": "Ones"}, "scale": true, "axis": 3, "gamma_constraint": null, "beta_constraint": null, "name": "bn2a_branch2c", "beta_initializer": {"config": {}, "class_name": "Zeros"}, "moving_mean_initializer": {"config": {}, "class_name": "Zeros"}}, "class_name": "BatchNormalization", "inbound_nodes": [[["res2a_branch2c", 0, 0, {}]]]}, {"name": "bn2a_branch1", "config": {"epsilon": 0.001, "momentum": 0.99, "gamma_regularizer": null, "gamma_initializer": {"config": {}, "class_name": "Ones"}, "center": true, "beta_regularizer": null, "trainable": true, "moving_variance_initializer": {"config": {}, "class_name": "Ones"}, "scale": true, "axis": 3, "gamma_constraint": null, "beta_constraint": null, "name": "bn2a_branch1", "beta_initializer": {"config": {}, "class_name": "Zeros"}, "moving_mean_initializer": {"config": {}, "class_name": "Zeros"}}, "class_name": "BatchNormalization", "inbound_nodes": [[["res2a_branch1", 0, 0, {}]]]}, {"name": "add_1", "config": {"trainable": true, "name": "add_1"}, "class_name": "Add", "inbound_nodes": [[["bn2a_branch2c", 0, 0, {}], ["bn2a_branch1", 0, 0, {}]]]}, {"name": "activation_4", "config": {"trainable": true, "name": "activation_4", "activation": "relu"}, "class_name": "Activation", "inbound_nodes": [[["add_1", 0, 0, {}]]]}, {"name": "res2b_branch2a", "config": {"bias_initializer": {"config": {}, "class_name": "Zeros"}, "trainable": true, "kernel_regularizer": null, "activity_regularizer": null, "bias_regularizer": null, "filters": 64, "bias_constraint": null, "dilation_rate": [1, 1], "kernel_initializer": {"config": {"distribution": "uniform", "scale": 1.0, "mode": "fan_avg", "seed": null}, "class_name": "VarianceScaling"}, "kernel_size": [1, 1], "data_format": "channels_last", "kernel_constraint": null, "padding": "valid", "name": "res2b_branch2a", "strides": [1, 1], "use_bias": true, "activation": "linear"}, "class_name": "Conv2D", "inbound_nodes": [[["activation_4", 0, 0, {}]]]}, {"name": "bn2b_branch2a", "config": {"epsilon": 0.001, "momentum": 0.99, "gamma_regularizer": null, "gamma_initializer": {"config": {}, "class_name": "Ones"}, "center": true, "beta_regularizer": null, "trainable": true, "moving_variance_initializer": {"config": {}, "class_name": "Ones"}, "scale": true, "axis": 3, "gamma_constraint": null, "beta_constraint": null, "name": "bn2b_branch2a", "beta_initializer": {"config": {}, "class_name": "Zeros"}, "moving_mean_initializer": {"config": {}, "class_name": "Zeros"}}, "class_name": "BatchNormalization", "inbound_nodes": [[["res2b_branch2a", 0, 0, {}]]]}, {"name": "activation_5", "config": {"trainable": true, "name": "activation_5", "activation": "relu"}, "class_name": "Activation", "inbound_nodes": [[["bn2b_branch2a", 0, 0, {}]]]}, {"name": "res2b_branch2b", "config": {"bias_initializer": {"config": {}, "class_name": "Zeros"}, "trainable": true, "kernel_regularizer": null, "activity_regularizer": null, "bias_regularizer": null, "filters": 64, "bias_constraint": null, "dilation_rate": [1, 1], "kernel_initializer": {"config": {"distribution": "uniform", "scale": 1.0, "mode": "fan_avg", "seed": null}, "class_name": "VarianceScaling"}, "kernel_size": [3, 3], "data_format": "channels_last", "kernel_constraint": null, "padding": "same", "name": "res2b_branch2b", "strides": [1, 1], "use_bias": true, "activation": "linear"}, "class_name": "Conv2D", "inbound_nodes": [[["activation_5", 0, 0, {}]]]}, {"name": "bn2b_branch2b", "config": {"epsilon": 0.001, "momentum": 0.99, "gamma_regularizer": null, "gamma_initializer": {"config": {}, "class_name": "Ones"}, "center": true, "beta_regularizer": null, "trainable": true, "moving_variance_initializer": {"config": {}, "class_name": "Ones"}, "scale": true, "axis": 3, "gamma_constraint": null, "beta_constraint": null, "name": "bn2b_branch2b", "beta_initializer": {"config": {}, "class_name": "Zeros"}, "moving_mean_initializer": {"config": {}, "class_name": "Zeros"}}, "class_name": "BatchNormalization", "inbound_nodes": [[["res2b_branch2b", 0, 0, {}]]]}, {"name": "activation_6", "config": {"trainable": true, "name": "activation_6", "activation": "relu"}, "class_name": "Activation", "inbound_nodes": [[["bn2b_branch2b", 0, 0, {}]]]}, {"name": "res2b_branch2c", "config": {"bias_initializer": {"config": {}, "class_name": "Zeros"}, "trainable": true, "kernel_regularizer": null, "activity_regularizer": null, "bias_regularizer": null, "filters": 256, "bias_constraint": null, "dilation_rate": [1, 1], "kernel_initializer": {"config": {"distribution": "uniform", "scale": 1.0, "mode": "fan_avg", "seed": null}, "class_name": "VarianceScaling"}, "kernel_size": [1, 1], "data_format": "channels_last", "kernel_constraint": null, "padding": "valid", "name": "res2b_branch2c", "strides": [1, 1], "use_bias": true, "activation": "linear"}, "class_name": "Conv2D", "inbound_nodes": [[["activation_6", 0, 0, {}]]]}, {"name": "bn2b_branch2c", "config": {"epsilon": 0.001, "momentum": 0.99, "gamma_regularizer": null, "gamma_initializer": {"config": {}, "class_name": "Ones"}, "center": true, "beta_regularizer": null, "trainable": true, "moving_variance_initializer": {"config": {}, "class_name": "Ones"}, "scale": true, "axis": 3, "gamma_constraint": null, "beta_constraint": null, "name": "bn2b_branch2c", "beta_initializer": {"config": {}, "class_name": "Zeros"}, "moving_mean_initializer": {"config": {}, "class_name": "Zeros"}}, "class_name": "BatchNormalization", "inbound_nodes": [[["res2b_branch2c", 0, 0, {}]]]}, {"name": "add_2", "config": {"trainable": true, "name": "add_2"}, "class_name": "Add", "inbound_nodes": [[["bn2b_branch2c", 0, 0, {}], ["activation_4", 0, 0, {}]]]}, {"name": "activation_7", "config": {"trainable": true, "name": "activation_7", "activation": "relu"}, "class_name": "Activation", "inbound_nodes": [[["add_2", 0, 0, {}]]]}, {"name": "res2c_branch2a", "config": {"bias_initializer": {"config": {}, "class_name": "Zeros"}, "trainable": true, "kernel_regularizer": null, "activity_regularizer": null, "bias_regularizer": null, "filters": 64, "bias_constraint": null, "dilation_rate": [1, 1], "kernel_initializer": {"config": {"distribution": "uniform", "scale": 1.0, "mode": "fan_avg", "seed": null}, "class_name": "VarianceScaling"}, "kernel_size": [1, 1], "data_format": "channels_last", "kernel_constraint": null, "padding": "valid", "name": "res2c_branch2a", "strides": [1, 1], "use_bias": true, "activation": "linear"}, "class_name": "Conv2D", "inbound_nodes": [[["activation_7", 0, 0, {}]]]}, {"name": "bn2c_branch2a", "config": {"epsilon": 0.001, "momentum": 0.99, "gamma_regularizer": null, "gamma_initializer": {"config": {}, "class_name": "Ones"}, "center": true, "beta_regularizer": null, "trainable": true, "moving_variance_initializer": {"config": {}, "class_name": "Ones"}, "scale": true, "axis": 3, "gamma_constraint": null, "beta_constraint": null, "name": "bn2c_branch2a", "beta_initializer": {"config": {}, "class_name": "Zeros"}, "moving_mean_initializer": {"config": {}, "class_name": "Zeros"}}, "class_name": "BatchNormalization", "inbound_nodes": [[["res2c_branch2a", 0, 0, {}]]]}, {"name": "activation_8", "config": {"trainable": true, "name": "activation_8", "activation": "relu"}, "class_name": "Activation", "inbound_nodes": [[["bn2c_branch2a", 0, 0, {}]]]}, {"name": "res2c_branch2b", "config": {"bias_initializer": {"config": {}, "class_name": "Zeros"}, "trainable": true, "kernel_regularizer": null, "activity_regularizer": null, "bias_regularizer": null, "filters": 64, "bias_constraint": null, "dilation_rate": [1, 1], "kernel_initializer": {"config": {"distribution": "uniform", "scale": 1.0, "mode": "fan_avg", "seed": null}, "class_name": "VarianceScaling"}, "kernel_size": [3, 3], "data_format": "channels_last", "kernel_constraint": null, "padding": "same", "name": "res2c_branch2b", "strides": [1, 1], "use_bias": true, "activation": "linear"}, "class_name": "Conv2D", "inbound_nodes": [[["activation_8", 0, 0, {}]]]}, {"name": "bn2c_branch2b", "config": {"epsilon": 0.001, "momentum": 0.99, "gamma_regularizer": null, "gamma_initializer": {"config": {}, "class_name": "Ones"}, "center": true, "beta_regularizer": null, "trainable": true, "moving_variance_initializer": {"config": {}, "class_name": "Ones"}, "scale": true, "axis": 3, "gamma_constraint": null, "beta_constraint": null, "name": "bn2c_branch2b", "beta_initializer": {"config": {}, "class_name": "Zeros"}, "moving_mean_initializer": {"config": {}, "class_name": "Zeros"}}, "class_name": "BatchNormalization", "inbound_nodes": [[["res2c_branch2b", 0, 0, {}]]]}, {"name": "activation_9", "config": {"trainable": true, "name": "activation_9", "activation": "relu"}, "class_name": "Activation", "inbound_nodes": [[["bn2c_branch2b", 0, 0, {}]]]}, {"name": "res2c_branch2c", "config": {"bias_initializer": {"config": {}, "class_name": "Zeros"}, "trainable": true, "kernel_regularizer": null, "activity_regularizer": null, "bias_regularizer": null, "filters": 256, "bias_constraint": null, "dilation_rate": [1, 1], "kernel_initializer": {"config": {"distribution": "uniform", "scale": 1.0, "mode": "fan_avg", "seed": null}, "class_name": "VarianceScaling"}, "kernel_size": [1, 1], "data_format": "channels_last", "kernel_constraint": null, "padding": "valid", "name": "res2c_branch2c", "strides": [1, 1], "use_bias": true, "activation": "linear"}, "class_name": "Conv2D", "inbound_nodes": [[["activation_9", 0, 0, {}]]]}, {"name": "bn2c_branch2c", "config": {"epsilon": 0.001, "momentum": 0.99, "gamma_regularizer": null, "gamma_initializer": {"config": {}, "class_name": "Ones"}, "center": true, "beta_regularizer": null, "trainable": true, "moving_variance_initializer": {"config": {}, "class_name": "Ones"}, "scale": true, "axis": 3, "gamma_constraint": null, "beta_constraint": null, "name": "bn2c_branch2c", "beta_initializer": {"config": {}, "class_name": "Zeros"}, "moving_mean_initializer": {"config": {}, "class_name": "Zeros"}}, "class_name": "BatchNormalization", "inbound_nodes": [[["res2c_branch2c", 0, 0, {}]]]}, {"name": "add_3", "config": {"trainable": true, "name": "add_3"}, "class_name": "Add", "inbound_nodes": [[["bn2c_branch2c", 0, 0, {}], ["activation_7", 0, 0, {}]]]}, {"name": "activation_10", "config": {"trainable": true, "name": "activation_10", "activation": "relu"}, "class_name": "Activation", "inbound_nodes": [[["add_3", 0, 0, {}]]]}, {"name": "res3a_branch2a", "config": {"bias_initializer": {"config": {}, "class_name": "Zeros"}, "trainable": true, "kernel_regularizer": null, "activity_regularizer": null, "bias_regularizer": null, "filters": 128, "bias_constraint": null, "dilation_rate": [1, 1], "kernel_initializer": {"config": {"distribution": "uniform", "scale": 1.0, "mode": "fan_avg", "seed": null}, "class_name": "VarianceScaling"}, "kernel_size": [1, 1], "data_format": "channels_last", "kernel_constraint": null, "padding": "valid", "name": "res3a_branch2a", "strides": [2, 2], "use_bias": true, "activation": "linear"}, "class_name": "Conv2D", "inbound_nodes": [[["activation_10", 0, 0, {}]]]}, {"name": "bn3a_branch2a", "config": {"epsilon": 0.001, "momentum": 0.99, "gamma_regularizer": null, "gamma_initializer": {"config": {}, "class_name": "Ones"}, "center": true, "beta_regularizer": null, "trainable": true, "moving_variance_initializer": {"config": {}, "class_name": "Ones"}, "scale": true, "axis": 3, "gamma_constraint": null, "beta_constraint": null, "name": "bn3a_branch2a", "beta_initializer": {"config": {}, "class_name": "Zeros"}, "moving_mean_initializer": {"config": {}, "class_name": "Zeros"}}, "class_name": "BatchNormalization", "inbound_nodes": [[["res3a_branch2a", 0, 0, {}]]]}, {"name": "activation_11", "config": {"trainable": true, "name": "activation_11", "activation": "relu"}, "class_name": "Activation", "inbound_nodes": [[["bn3a_branch2a", 0, 0, {}]]]}, {"name": "res3a_branch2b", "config": {"bias_initializer": {"config": {}, "class_name": "Zeros"}, "trainable": true, "kernel_regularizer": null, "activity_regularizer": null, "bias_regularizer": null, "filters": 128, "bias_constraint": null, "dilation_rate": [1, 1], "kernel_initializer": {"config": {"distribution": "uniform", "scale": 1.0, "mode": "fan_avg", "seed": null}, "class_name": "VarianceScaling"}, "kernel_size": [3, 3], "data_format": "channels_last", "kernel_constraint": null, "padding": "same", "name": "res3a_branch2b", "strides": [1, 1], "use_bias": true, "activation": "linear"}, "class_name": "Conv2D", "inbound_nodes": [[["activation_11", 0, 0, {}]]]}, {"name": "bn3a_branch2b", "config": {"epsilon": 0.001, "momentum": 0.99, "gamma_regularizer": null, "gamma_initializer": {"config": {}, "class_name": "Ones"}, "center": true, "beta_regularizer": null, "trainable": true, "moving_variance_initializer": {"config": {}, "class_name": "Ones"}, "scale": true, "axis": 3, "gamma_constraint": null, "beta_constraint": null, "name": "bn3a_branch2b", "beta_initializer": {"config": {}, "class_name": "Zeros"}, "moving_mean_initializer": {"config": {}, "class_name": "Zeros"}}, "class_name": "BatchNormalization", "inbound_nodes": [[["res3a_branch2b", 0, 0, {}]]]}, {"name": "activation_12", "config": {"trainable": true, "name": "activation_12", "activation": "relu"}, "class_name": "Activation", "inbound_nodes": [[["bn3a_branch2b", 0, 0, {}]]]}, {"name": "res3a_branch2c", "config": {"bias_initializer": {"config": {}, "class_name": "Zeros"}, "trainable": true, "kernel_regularizer": null, "activity_regularizer": null, "bias_regularizer": null, "filters": 512, "bias_constraint": null, "dilation_rate": [1, 1], "kernel_initializer": {"config": {"distribution": "uniform", "scale": 1.0, "mode": "fan_avg", "seed": null}, "class_name": "VarianceScaling"}, "kernel_size": [1, 1], "data_format": "channels_last", "kernel_constraint": null, "padding": "valid", "name": "res3a_branch2c", "strides": [1, 1], "use_bias": true, "activation": "linear"}, "class_name": "Conv2D", "inbound_nodes": [[["activation_12", 0, 0, {}]]]}, {"name": "res3a_branch1", "config": {"bias_initializer": {"config": {}, "class_name": "Zeros"}, "trainable": true, "kernel_regularizer": null, "activity_regularizer": null, "bias_regularizer": null, "filters": 512, "bias_constraint": null, "dilation_rate": [1, 1], "kernel_initializer": {"config": {"distribution": "uniform", "scale": 1.0, "mode": "fan_avg", "seed": null}, "class_name": "VarianceScaling"}, "kernel_size": [1, 1], "data_format": "channels_last", "kernel_constraint": null, "padding": "valid", "name": "res3a_branch1", "strides": [2, 2], "use_bias": true, "activation": "linear"}, "class_name": "Conv2D", "inbound_nodes": [[["activation_10", 0, 0, {}]]]}, {"name": "bn3a_branch2c", "config": {"epsilon": 0.001, "momentum": 0.99, "gamma_regularizer": null, "gamma_initializer": {"config": {}, "class_name": "Ones"}, "center": true, "beta_regularizer": null, "trainable": true, "moving_variance_initializer": {"config": {}, "class_name": "Ones"}, "scale": true, "axis": 3, "gamma_constraint": null, "beta_constraint": null, "name": "bn3a_branch2c", "beta_initializer": {"config": {}, "class_name": "Zeros"}, "moving_mean_initializer": {"config": {}, "class_name": "Zeros"}}, "class_name": "BatchNormalization", "inbound_nodes": [[["res3a_branch2c", 0, 0, {}]]]}, {"name": "bn3a_branch1", "config": {"epsilon": 0.001, "momentum": 0.99, "gamma_regularizer": null, "gamma_initializer": {"config": {}, "class_name": "Ones"}, "center": true, "beta_regularizer": null, "trainable": true, "moving_variance_initializer": {"config": {}, "class_name": "Ones"}, "scale": true, "axis": 3, "gamma_constraint": null, "beta_constraint": null, "name": "bn3a_branch1", "beta_initializer": {"config": {}, "class_name": "Zeros"}, "moving_mean_initializer": {"config": {}, "class_name": "Zeros"}}, "class_name": "BatchNormalization", "inbound_nodes": [[["res3a_branch1", 0, 0, {}]]]}, {"name": "add_4", "config": {"trainable": true, "name": "add_4"}, "class_name": "Add", "inbound_nodes": [[["bn3a_branch2c", 0, 0, {}], ["bn3a_branch1", 0, 0, {}]]]}, {"name": "activation_13", "config": {"trainable": true, "name": "activation_13", "activation": "relu"}, "class_name": "Activation", "inbound_nodes": [[["add_4", 0, 0, {}]]]}, {"name": "res3b_branch2a", "config": {"bias_initializer": {"config": {}, "class_name": "Zeros"}, "trainable": true, "kernel_regularizer": null, "activity_regularizer": null, "bias_regularizer": null, "filters": 128, "bias_constraint": null, "dilation_rate": [1, 1], "kernel_initializer": {"config": {"distribution": "uniform", "scale": 1.0, "mode": "fan_avg", "seed": null}, "class_name": "VarianceScaling"}, "kernel_size": [1, 1], "data_format": "channels_last", "kernel_constraint": null, "padding": "valid", "name": "res3b_branch2a", "strides": [1, 1], "use_bias": true, "activation": "linear"}, "class_name": "Conv2D", "inbound_nodes": [[["activation_13", 0, 0, {}]]]}, {"name": "bn3b_branch2a", "config": {"epsilon": 0.001, "momentum": 0.99, "gamma_regularizer": null, "gamma_initializer": {"config": {}, "class_name": "Ones"}, "center": true, "beta_regularizer": null, "trainable": true, "moving_variance_initializer": {"config": {}, "class_name": "Ones"}, "scale": true, "axis": 3, "gamma_constraint": null, "beta_constraint": null, "name": "bn3b_branch2a", "beta_initializer": {"config": {}, "class_name": "Zeros"}, "moving_mean_initializer": {"config": {}, "class_name": "Zeros"}}, "class_name": "BatchNormalization", "inbound_nodes": [[["res3b_branch2a", 0, 0, {}]]]}, {"name": "activation_14", "config": {"trainable": true, "name": "activation_14", "activation": "relu"}, "class_name": "Activation", "inbound_nodes": [[["bn3b_branch2a", 0, 0, {}]]]}, {"name": "res3b_branch2b", "config": {"bias_initializer": {"config": {}, "class_name": "Zeros"}, "trainable": true, "kernel_regularizer": null, "activity_regularizer": null, "bias_regularizer": null, "filters": 128, "bias_constraint": null, "dilation_rate": [1, 1], "kernel_initializer": {"config": {"distribution": "uniform", "scale": 1.0, "mode": "fan_avg", "seed": null}, "class_name": "VarianceScaling"}, "kernel_size": [3, 3], "data_format": "channels_last", "kernel_constraint": null, "padding": "same", "name": "res3b_branch2b", "strides": [1, 1], "use_bias": true, "activation": "linear"}, "class_name": "Conv2D", "inbound_nodes": [[["activation_14", 0, 0, {}]]]}, {"name": "bn3b_branch2b", "config": {"epsilon": 0.001, "momentum": 0.99, "gamma_regularizer": null, "gamma_initializer": {"config": {}, "class_name": "Ones"}, "center": true, "beta_regularizer": null, "trainable": true, "moving_variance_initializer": {"config": {}, "class_name": "Ones"}, "scale": true, "axis": 3, "gamma_constraint": null, "beta_constraint": null, "name": "bn3b_branch2b", "beta_initializer": {"config": {}, "class_name": "Zeros"}, "moving_mean_initializer": {"config": {}, "class_name": "Zeros"}}, "class_name": "BatchNormalization", "inbound_nodes": [[["res3b_branch2b", 0, 0, {}]]]}, {"name": "activation_15", "config": {"trainable": true, "name": "activation_15", "activation": "relu"}, "class_name": "Activation", "inbound_nodes": [[["bn3b_branch2b", 0, 0, {}]]]}, {"name": "res3b_branch2c", "config": {"bias_initializer": {"config": {}, "class_name": "Zeros"}, "trainable": true, "kernel_regularizer": null, "activity_regularizer": null, "bias_regularizer": null, "filters": 512, "bias_constraint": null, "dilation_rate": [1, 1], "kernel_initializer": {"config": {"distribution": "uniform", "scale": 1.0, "mode": "fan_avg", "seed": null}, "class_name": "VarianceScaling"}, "kernel_size": [1, 1], "data_format": "channels_last", "kernel_constraint": null, "padding": "valid", "name": "res3b_branch2c", "strides": [1, 1], "use_bias": true, "activation": "linear"}, "class_name": "Conv2D", "inbound_nodes": [[["activation_15", 0, 0, {}]]]}, {"name": "bn3b_branch2c", "config": {"epsilon": 0.001, "momentum": 0.99, "gamma_regularizer": null, "gamma_initializer": {"config": {}, "class_name": "Ones"}, "center": true, "beta_regularizer": null, "trainable": true, "moving_variance_initializer": {"config": {}, "class_name": "Ones"}, "scale": true, "axis": 3, "gamma_constraint": null, "beta_constraint": null, "name": "bn3b_branch2c", "beta_initializer": {"config": {}, "class_name": "Zeros"}, "moving_mean_initializer": {"config": {}, "class_name": "Zeros"}}, "class_name": "BatchNormalization", "inbound_nodes": [[["res3b_branch2c", 0, 0, {}]]]}, {"name": "add_5", "config": {"trainable": true, "name": "add_5"}, "class_name": "Add", "inbound_nodes": [[["bn3b_branch2c", 0, 0, {}], ["activation_13", 0, 0, {}]]]}, {"name": "activation_16", "config": {"trainable": true, "name": "activation_16", "activation": "relu"}, "class_name": "Activation", "inbound_nodes": [[["add_5", 0, 0, {}]]]}, {"name": "res3c_branch2a", "config": {"bias_initializer": {"config": {}, "class_name": "Zeros"}, "trainable": true, "kernel_regularizer": null, "activity_regularizer": null, "bias_regularizer": null, "filters": 128, "bias_constraint": null, "dilation_rate": [1, 1], "kernel_initializer": {"config": {"distribution": "uniform", "scale": 1.0, "mode": "fan_avg", "seed": null}, "class_name": "VarianceScaling"}, "kernel_size": [1, 1], "data_format": "channels_last", "kernel_constraint": null, "padding": "valid", "name": "res3c_branch2a", "strides": [1, 1], "use_bias": true, "activation": "linear"}, "class_name": "Conv2D", "inbound_nodes": [[["activation_16", 0, 0, {}]]]}, {"name": "bn3c_branch2a", "config": {"epsilon": 0.001, "momentum": 0.99, "gamma_regularizer": null, "gamma_initializer": {"config": {}, "class_name": "Ones"}, "center": true, "beta_regularizer": null, "trainable": true, "moving_variance_initializer": {"config": {}, "class_name": "Ones"}, "scale": true, "axis": 3, "gamma_constraint": null, "beta_constraint": null, "name": "bn3c_branch2a", "beta_initializer": {"config": {}, "class_name": "Zeros"}, "moving_mean_initializer": {"config": {}, "class_name": "Zeros"}}, "class_name": "BatchNormalization", "inbound_nodes": [[["res3c_branch2a", 0, 0, {}]]]}, {"name": "activation_17", "config": {"trainable": true, "name": "activation_17", "activation": "relu"}, "class_name": "Activation", "inbound_nodes": [[["bn3c_branch2a", 0, 0, {}]]]}, {"name": "res3c_branch2b", "config": {"bias_initializer": {"config": {}, "class_name": "Zeros"}, "trainable": true, "kernel_regularizer": null, "activity_regularizer": null, "bias_regularizer": null, "filters": 128, "bias_constraint": null, "dilation_rate": [1, 1], "kernel_initializer": {"config": {"distribution": "uniform", "scale": 1.0, "mode": "fan_avg", "seed": null}, "class_name": "VarianceScaling"}, "kernel_size": [3, 3], "data_format": "channels_last", "kernel_constraint": null, "padding": "same", "name": "res3c_branch2b", "strides": [1, 1], "use_bias": true, "activation": "linear"}, "class_name": "Conv2D", "inbound_nodes": [[["activation_17", 0, 0, {}]]]}, {"name": "bn3c_branch2b", "config": {"epsilon": 0.001, "momentum": 0.99, "gamma_regularizer": null, "gamma_initializer": {"config": {}, "class_name": "Ones"}, "center": true, "beta_regularizer": null, "trainable": true, "moving_variance_initializer": {"config": {}, "class_name": "Ones"}, "scale": true, "axis": 3, "gamma_constraint": null, "beta_constraint": null, "name": "bn3c_branch2b", "beta_initializer": {"config": {}, "class_name": "Zeros"}, "moving_mean_initializer": {"config": {}, "class_name": "Zeros"}}, "class_name": "BatchNormalization", "inbound_nodes": [[["res3c_branch2b", 0, 0, {}]]]}, {"name": "activation_18", "config": {"trainable": true, "name": "activation_18", "activation": "relu"}, "class_name": "Activation", "inbound_nodes": [[["bn3c_branch2b", 0, 0, {}]]]}, {"name": "res3c_branch2c", "config": {"bias_initializer": {"config": {}, "class_name": "Zeros"}, "trainable": true, "kernel_regularizer": null, "activity_regularizer": null, "bias_regularizer": null, "filters": 512, "bias_constraint": null, "dilation_rate": [1, 1], "kernel_initializer": {"config": {"distribution": "uniform", "scale": 1.0, "mode": "fan_avg", "seed": null}, "class_name": "VarianceScaling"}, "kernel_size": [1, 1], "data_format": "channels_last", "kernel_constraint": null, "padding": "valid", "name": "res3c_branch2c", "strides": [1, 1], "use_bias": true, "activation": "linear"}, "class_name": "Conv2D", "inbound_nodes": [[["activation_18", 0, 0, {}]]]}, {"name": "bn3c_branch2c", "config": {"epsilon": 0.001, "momentum": 0.99, "gamma_regularizer": null, "gamma_initializer": {"config": {}, "class_name": "Ones"}, "center": true, "beta_regularizer": null, "trainable": true, "moving_variance_initializer": {"config": {}, "class_name": "Ones"}, "scale": true, "axis": 3, "gamma_constraint": null, "beta_constraint": null, "name": "bn3c_branch2c", "beta_initializer": {"config": {}, "class_name": "Zeros"}, "moving_mean_initializer": {"config": {}, "class_name": "Zeros"}}, "class_name": "BatchNormalization", "inbound_nodes": [[["res3c_branch2c", 0, 0, {}]]]}, {"name": "add_6", "config": {"trainable": true, "name": "add_6"}, "class_name": "Add", "inbound_nodes": [[["bn3c_branch2c", 0, 0, {}], ["activation_16", 0, 0, {}]]]}, {"name": "activation_19", "config": {"trainable": true, "name": "activation_19", "activation": "relu"}, "class_name": "Activation", "inbound_nodes": [[["add_6", 0, 0, {}]]]}, {"name": "res3d_branch2a", "config": {"bias_initializer": {"config": {}, "class_name": "Zeros"}, "trainable": true, "kernel_regularizer": null, "activity_regularizer": null, "bias_regularizer": null, "filters": 128, "bias_constraint": null, "dilation_rate": [1, 1], "kernel_initializer": {"config": {"distribution": "uniform", "scale": 1.0, "mode": "fan_avg", "seed": null}, "class_name": "VarianceScaling"}, "kernel_size": [1, 1], "data_format": "channels_last", "kernel_constraint": null, "padding": "valid", "name": "res3d_branch2a", "strides": [1, 1], "use_bias": true, "activation": "linear"}, "class_name": "Conv2D", "inbound_nodes": [[["activation_19", 0, 0, {}]]]}, {"name": "bn3d_branch2a", "config": {"epsilon": 0.001, "momentum": 0.99, "gamma_regularizer": null, "gamma_initializer": {"config": {}, "class_name": "Ones"}, "center": true, "beta_regularizer": null, "trainable": true, "moving_variance_initializer": {"config": {}, "class_name": "Ones"}, "scale": true, "axis": 3, "gamma_constraint": null, "beta_constraint": null, "name": "bn3d_branch2a", "beta_initializer": {"config": {}, "class_name": "Zeros"}, "moving_mean_initializer": {"config": {}, "class_name": "Zeros"}}, "class_name": "BatchNormalization", "inbound_nodes": [[["res3d_branch2a", 0, 0, {}]]]}, {"name": "activation_20", "config": {"trainable": true, "name": "activation_20", "activation": "relu"}, "class_name": "Activation", "inbound_nodes": [[["bn3d_branch2a", 0, 0, {}]]]}, {"name": "res3d_branch2b", "config": {"bias_initializer": {"config": {}, "class_name": "Zeros"}, "trainable": true, "kernel_regularizer": null, "activity_regularizer": null, "bias_regularizer": null, "filters": 128, "bias_constraint": null, "dilation_rate": [1, 1], "kernel_initializer": {"config": {"distribution": "uniform", "scale": 1.0, "mode": "fan_avg", "seed": null}, "class_name": "VarianceScaling"}, "kernel_size": [3, 3], "data_format": "channels_last", "kernel_constraint": null, "padding": "same", "name": "res3d_branch2b", "strides": [1, 1], "use_bias": true, "activation": "linear"}, "class_name": "Conv2D", "inbound_nodes": [[["activation_20", 0, 0, {}]]]}, {"name": "bn3d_branch2b", "config": {"epsilon": 0.001, "momentum": 0.99, "gamma_regularizer": null, "gamma_initializer": {"config": {}, "class_name": "Ones"}, "center": true, "beta_regularizer": null, "trainable": true, "moving_variance_initializer": {"config": {}, "class_name": "Ones"}, "scale": true, "axis": 3, "gamma_constraint": null, "beta_constraint": null, "name": "bn3d_branch2b", "beta_initializer": {"config": {}, "class_name": "Zeros"}, "moving_mean_initializer": {"config": {}, "class_name": "Zeros"}}, "class_name": "BatchNormalization", "inbound_nodes": [[["res3d_branch2b", 0, 0, {}]]]}, {"name": "activation_21", "config": {"trainable": true, "name": "activation_21", "activation": "relu"}, "class_name": "Activation", "inbound_nodes": [[["bn3d_branch2b", 0, 0, {}]]]}, {"name": "res3d_branch2c", "config": {"bias_initializer": {"config": {}, "class_name": "Zeros"}, "trainable": true, "kernel_regularizer": null, "activity_regularizer": null, "bias_regularizer": null, "filters": 512, "bias_constraint": null, "dilation_rate": [1, 1], "kernel_initializer": {"config": {"distribution": "uniform", "scale": 1.0, "mode": "fan_avg", "seed": null}, "class_name": "VarianceScaling"}, "kernel_size": [1, 1], "data_format": "channels_last", "kernel_constraint": null, "padding": "valid", "name": "res3d_branch2c", "strides": [1, 1], "use_bias": true, "activation": "linear"}, "class_name": "Conv2D", "inbound_nodes": [[["activation_21", 0, 0, {}]]]}, {"name": "bn3d_branch2c", "config": {"epsilon": 0.001, "momentum": 0.99, "gamma_regularizer": null, "gamma_initializer": {"config": {}, "class_name": "Ones"}, "center": true, "beta_regularizer": null, "trainable": true, "moving_variance_initializer": {"config": {}, "class_name": "Ones"}, "scale": true, "axis": 3, "gamma_constraint": null, "beta_constraint": null, "name": "bn3d_branch2c", "beta_initializer": {"config": {}, "class_name": "Zeros"}, "moving_mean_initializer": {"config": {}, "class_name": "Zeros"}}, "class_name": "BatchNormalization", "inbound_nodes": [[["res3d_branch2c", 0, 0, {}]]]}, {"name": "add_7", "config": {"trainable": true, "name": "add_7"}, "class_name": "Add", "inbound_nodes": [[["bn3d_branch2c", 0, 0, {}], ["activation_19", 0, 0, {}]]]}, {"name": "activation_22", "config": {"trainable": true, "name": "activation_22", "activation": "relu"}, "class_name": "Activation", "inbound_nodes": [[["add_7", 0, 0, {}]]]}, {"name": "res4a_branch2a", "config": {"bias_initializer": {"config": {}, "class_name": "Zeros"}, "trainable": true, "kernel_regularizer": null, "activity_regularizer": null, "bias_regularizer": null, "filters": 256, "bias_constraint": null, "dilation_rate": [1, 1], "kernel_initializer": {"config": {"distribution": "uniform", "scale": 1.0, "mode": "fan_avg", "seed": null}, "class_name": "VarianceScaling"}, "kernel_size": [1, 1], "data_format": "channels_last", "kernel_constraint": null, "padding": "valid", "name": "res4a_branch2a", "strides": [2, 2], "use_bias": true, "activation": "linear"}, "class_name": "Conv2D", "inbound_nodes": [[["activation_22", 0, 0, {}]]]}, {"name": "bn4a_branch2a", "config": {"epsilon": 0.001, "momentum": 0.99, "gamma_regularizer": null, "gamma_initializer": {"config": {}, "class_name": "Ones"}, "center": true, "beta_regularizer": null, "trainable": true, "moving_variance_initializer": {"config": {}, "class_name": "Ones"}, "scale": true, "axis": 3, "gamma_constraint": null, "beta_constraint": null, "name": "bn4a_branch2a", "beta_initializer": {"config": {}, "class_name": "Zeros"}, "moving_mean_initializer": {"config": {}, "class_name": "Zeros"}}, "class_name": "BatchNormalization", "inbound_nodes": [[["res4a_branch2a", 0, 0, {}]]]}, {"name": "activation_23", "config": {"trainable": true, "name": "activation_23", "activation": "relu"}, "class_name": "Activation", "inbound_nodes": [[["bn4a_branch2a", 0, 0, {}]]]}, {"name": "res4a_branch2b", "config": {"bias_initializer": {"config": {}, "class_name": "Zeros"}, "trainable": true, "kernel_regularizer": null, "activity_regularizer": null, "bias_regularizer": null, "filters": 256, "bias_constraint": null, "dilation_rate": [1, 1], "kernel_initializer": {"config": {"distribution": "uniform", "scale": 1.0, "mode": "fan_avg", "seed": null}, "class_name": "VarianceScaling"}, "kernel_size": [3, 3], "data_format": "channels_last", "kernel_constraint": null, "padding": "same", "name": "res4a_branch2b", "strides": [1, 1], "use_bias": true, "activation": "linear"}, "class_name": "Conv2D", "inbound_nodes": [[["activation_23", 0, 0, {}]]]}, {"name": "bn4a_branch2b", "config": {"epsilon": 0.001, "momentum": 0.99, "gamma_regularizer": null, "gamma_initializer": {"config": {}, "class_name": "Ones"}, "center": true, "beta_regularizer": null, "trainable": true, "moving_variance_initializer": {"config": {}, "class_name": "Ones"}, "scale": true, "axis": 3, "gamma_constraint": null, "beta_constraint": null, "name": "bn4a_branch2b", "beta_initializer": {"config": {}, "class_name": "Zeros"}, "moving_mean_initializer": {"config": {}, "class_name": "Zeros"}}, "class_name": "BatchNormalization", "inbound_nodes": [[["res4a_branch2b", 0, 0, {}]]]}, {"name": "activation_24", "config": {"trainable": true, "name": "activation_24", "activation": "relu"}, "class_name": "Activation", "inbound_nodes": [[["bn4a_branch2b", 0, 0, {}]]]}, {"name": "res4a_branch2c", "config": {"bias_initializer": {"config": {}, "class_name": "Zeros"}, "trainable": true, "kernel_regularizer": null, "activity_regularizer": null, "bias_regularizer": null, "filters": 1024, "bias_constraint": null, "dilation_rate": [1, 1], "kernel_initializer": {"config": {"distribution": "uniform", "scale": 1.0, "mode": "fan_avg", "seed": null}, "class_name": "VarianceScaling"}, "kernel_size": [1, 1], "data_format": "channels_last", "kernel_constraint": null, "padding": "valid", "name": "res4a_branch2c", "strides": [1, 1], "use_bias": true, "activation": "linear"}, "class_name": "Conv2D", "inbound_nodes": [[["activation_24", 0, 0, {}]]]}, {"name": "res4a_branch1", "config": {"bias_initializer": {"config": {}, "class_name": "Zeros"}, "trainable": true, "kernel_regularizer": null, "activity_regularizer": null, "bias_regularizer": null, "filters": 1024, "bias_constraint": null, "dilation_rate": [1, 1], "kernel_initializer": {"config": {"distribution": "uniform", "scale": 1.0, "mode": "fan_avg", "seed": null}, "class_name": "VarianceScaling"}, "kernel_size": [1, 1], "data_format": "channels_last", "kernel_constraint": null, "padding": "valid", "name": "res4a_branch1", "strides": [2, 2], "use_bias": true, "activation": "linear"}, "class_name": "Conv2D", "inbound_nodes": [[["activation_22", 0, 0, {}]]]}, {"name": "bn4a_branch2c", "config": {"epsilon": 0.001, "momentum": 0.99, "gamma_regularizer": null, "gamma_initializer": {"config": {}, "class_name": "Ones"}, "center": true, "beta_regularizer": null, "trainable": true, "moving_variance_initializer": {"config": {}, "class_name": "Ones"}, "scale": true, "axis": 3, "gamma_constraint": null, "beta_constraint": null, "name": "bn4a_branch2c", "beta_initializer": {"config": {}, "class_name": "Zeros"}, "moving_mean_initializer": {"config": {}, "class_name": "Zeros"}}, "class_name": "BatchNormalization", "inbound_nodes": [[["res4a_branch2c", 0, 0, {}]]]}, {"name": "bn4a_branch1", "config": {"epsilon": 0.001, "momentum": 0.99, "gamma_regularizer": null, "gamma_initializer": {"config": {}, "class_name": "Ones"}, "center": true, "beta_regularizer": null, "trainable": true, "moving_variance_initializer": {"config": {}, "class_name": "Ones"}, "scale": true, "axis": 3, "gamma_constraint": null, "beta_constraint": null, "name": "bn4a_branch1", "beta_initializer": {"config": {}, "class_name": "Zeros"}, "moving_mean_initializer": {"config": {}, "class_name": "Zeros"}}, "class_name": "BatchNormalization", "inbound_nodes": [[["res4a_branch1", 0, 0, {}]]]}, {"name": "add_8", "config": {"trainable": true, "name": "add_8"}, "class_name": "Add", "inbound_nodes": [[["bn4a_branch2c", 0, 0, {}], ["bn4a_branch1", 0, 0, {}]]]}, {"name": "activation_25", "config": {"trainable": true, "name": "activation_25", "activation": "relu"}, "class_name": "Activation", "inbound_nodes": [[["add_8", 0, 0, {}]]]}, {"name": "res4b_branch2a", "config": {"bias_initializer": {"config": {}, "class_name": "Zeros"}, "trainable": true, "kernel_regularizer": null, "activity_regularizer": null, "bias_regularizer": null, "filters": 256, "bias_constraint": null, "dilation_rate": [1, 1], "kernel_initializer": {"config": {"distribution": "uniform", "scale": 1.0, "mode": "fan_avg", "seed": null}, "class_name": "VarianceScaling"}, "kernel_size": [1, 1], "data_format": "channels_last", "kernel_constraint": null, "padding": "valid", "name": "res4b_branch2a", "strides": [1, 1], "use_bias": true, "activation": "linear"}, "class_name": "Conv2D", "inbound_nodes": [[["activation_25", 0, 0, {}]]]}, {"name": "bn4b_branch2a", "config": {"epsilon": 0.001, "momentum": 0.99, "gamma_regularizer": null, "gamma_initializer": {"config": {}, "class_name": "Ones"}, "center": true, "beta_regularizer": null, "trainable": true, "moving_variance_initializer": {"config": {}, "class_name": "Ones"}, "scale": true, "axis": 3, "gamma_constraint": null, "beta_constraint": null, "name": "bn4b_branch2a", "beta_initializer": {"config": {}, "class_name": "Zeros"}, "moving_mean_initializer": {"config": {}, "class_name": "Zeros"}}, "class_name": "BatchNormalization", "inbound_nodes": [[["res4b_branch2a", 0, 0, {}]]]}, {"name": "activation_26", "config": {"trainable": true, "name": "activation_26", "activation": "relu"}, "class_name": "Activation", "inbound_nodes": [[["bn4b_branch2a", 0, 0, {}]]]}, {"name": "res4b_branch2b", "config": {"bias_initializer": {"config": {}, "class_name": "Zeros"}, "trainable": true, "kernel_regularizer": null, "activity_regularizer": null, "bias_regularizer": null, "filters": 256, "bias_constraint": null, "dilation_rate": [1, 1], "kernel_initializer": {"config": {"distribution": "uniform", "scale": 1.0, "mode": "fan_avg", "seed": null}, "class_name": "VarianceScaling"}, "kernel_size": [3, 3], "data_format": "channels_last", "kernel_constraint": null, "padding": "same", "name": "res4b_branch2b", "strides": [1, 1], "use_bias": true, "activation": "linear"}, "class_name": "Conv2D", "inbound_nodes": [[["activation_26", 0, 0, {}]]]}, {"name": "bn4b_branch2b", "config": {"epsilon": 0.001, "momentum": 0.99, "gamma_regularizer": null, "gamma_initializer": {"config": {}, "class_name": "Ones"}, "center": true, "beta_regularizer": null, "trainable": true, "moving_variance_initializer": {"config": {}, "class_name": "Ones"}, "scale": true, "axis": 3, "gamma_constraint": null, "beta_constraint": null, "name": "bn4b_branch2b", "beta_initializer": {"config": {}, "class_name": "Zeros"}, "moving_mean_initializer": {"config": {}, "class_name": "Zeros"}}, "class_name": "BatchNormalization", "inbound_nodes": [[["res4b_branch2b", 0, 0, {}]]]}, {"name": "activation_27", "config": {"trainable": true, "name": "activation_27", "activation": "relu"}, "class_name": "Activation", "inbound_nodes": [[["bn4b_branch2b", 0, 0, {}]]]}, {"name": "res4b_branch2c", "config": {"bias_initializer": {"config": {}, "class_name": "Zeros"}, "trainable": true, "kernel_regularizer": null, "activity_regularizer": null, "bias_regularizer": null, "filters": 1024, "bias_constraint": null, "dilation_rate": [1, 1], "kernel_initializer": {"config": {"distribution": "uniform", "scale": 1.0, "mode": "fan_avg", "seed": null}, "class_name": "VarianceScaling"}, "kernel_size": [1, 1], "data_format": "channels_last", "kernel_constraint": null, "padding": "valid", "name": "res4b_branch2c", "strides": [1, 1], "use_bias": true, "activation": "linear"}, "class_name": "Conv2D", "inbound_nodes": [[["activation_27", 0, 0, {}]]]}, {"name": "bn4b_branch2c", "config": {"epsilon": 0.001, "momentum": 0.99, "gamma_regularizer": null, "gamma_initializer": {"config": {}, "class_name": "Ones"}, "center": true, "beta_regularizer": null, "trainable": true, "moving_variance_initializer": {"config": {}, "class_name": "Ones"}, "scale": true, "axis": 3, "gamma_constraint": null, "beta_constraint": null, "name": "bn4b_branch2c", "beta_initializer": {"config": {}, "class_name": "Zeros"}, "moving_mean_initializer": {"config": {}, "class_name": "Zeros"}}, "class_name": "BatchNormalization", "inbound_nodes": [[["res4b_branch2c", 0, 0, {}]]]}, {"name": "add_9", "config": {"trainable": true, "name": "add_9"}, "class_name": "Add", "inbound_nodes": [[["bn4b_branch2c", 0, 0, {}], ["activation_25", 0, 0, {}]]]}, {"name": "activation_28", "config": {"trainable": true, "name": "activation_28", "activation": "relu"}, "class_name": "Activation", "inbound_nodes": [[["add_9", 0, 0, {}]]]}, {"name": "res4c_branch2a", "config": {"bias_initializer": {"config": {}, "class_name": "Zeros"}, "trainable": true, "kernel_regularizer": null, "activity_regularizer": null, "bias_regularizer": null, "filters": 256, "bias_constraint": null, "dilation_rate": [1, 1], "kernel_initializer": {"config": {"distribution": "uniform", "scale": 1.0, "mode": "fan_avg", "seed": null}, "class_name": "VarianceScaling"}, "kernel_size": [1, 1], "data_format": "channels_last", "kernel_constraint": null, "padding": "valid", "name": "res4c_branch2a", "strides": [1, 1], "use_bias": true, "activation": "linear"}, "class_name": "Conv2D", "inbound_nodes": [[["activation_28", 0, 0, {}]]]}, {"name": "bn4c_branch2a", "config": {"epsilon": 0.001, "momentum": 0.99, "gamma_regularizer": null, "gamma_initializer": {"config": {}, "class_name": "Ones"}, "center": true, "beta_regularizer": null, "trainable": true, "moving_variance_initializer": {"config": {}, "class_name": "Ones"}, "scale": true, "axis": 3, "gamma_constraint": null, "beta_constraint": null, "name": "bn4c_branch2a", "beta_initializer": {"config": {}, "class_name": "Zeros"}, "moving_mean_initializer": {"config": {}, "class_name": "Zeros"}}, "class_name": "BatchNormalization", "inbound_nodes": [[["res4c_branch2a", 0, 0, {}]]]}, {"name": "activation_29", "config": {"trainable": true, "name": "activation_29", "activation": "relu"}, "class_name": "Activation", "inbound_nodes": [[["bn4c_branch2a", 0, 0, {}]]]}, {"name": "res4c_branch2b", "config": {"bias_initializer": {"config": {}, "class_name": "Zeros"}, "trainable": true, "kernel_regularizer": null, "activity_regularizer": null, "bias_regularizer": null, "filters": 256, "bias_constraint": null, "dilation_rate": [1, 1], "kernel_initializer": {"config": {"distribution": "uniform", "scale": 1.0, "mode": "fan_avg", "seed": null}, "class_name": "VarianceScaling"}, "kernel_size": [3, 3], "data_format": "channels_last", "kernel_constraint": null, "padding": "same", "name": "res4c_branch2b", "strides": [1, 1], "use_bias": true, "activation": "linear"}, "class_name": "Conv2D", "inbound_nodes": [[["activation_29", 0, 0, {}]]]}, {"name": "bn4c_branch2b", "config": {"epsilon": 0.001, "momentum": 0.99, "gamma_regularizer": null, "gamma_initializer": {"config": {}, "class_name": "Ones"}, "center": true, "beta_regularizer": null, "trainable": true, "moving_variance_initializer": {"config": {}, "class_name": "Ones"}, "scale": true, "axis": 3, "gamma_constraint": null, "beta_constraint": null, "name": "bn4c_branch2b", "beta_initializer": {"config": {}, "class_name": "Zeros"}, "moving_mean_initializer": {"config": {}, "class_name": "Zeros"}}, "class_name": "BatchNormalization", "inbound_nodes": [[["res4c_branch2b", 0, 0, {}]]]}, {"name": "activation_30", "config": {"trainable": true, "name": "activation_30", "activation": "relu"}, "class_name": "Activation", "inbound_nodes": [[["bn4c_branch2b", 0, 0, {}]]]}, {"name": "res4c_branch2c", "config": {"bias_initializer": {"config": {}, "class_name": "Zeros"}, "trainable": true, "kernel_regularizer": null, "activity_regularizer": null, "bias_regularizer": null, "filters": 1024, "bias_constraint": null, "dilation_rate": [1, 1], "kernel_initializer": {"config": {"distribution": "uniform", "scale": 1.0, "mode": "fan_avg", "seed": null}, "class_name": "VarianceScaling"}, "kernel_size": [1, 1], "data_format": "channels_last", "kernel_constraint": null, "padding": "valid", "name": "res4c_branch2c", "strides": [1, 1], "use_bias": true, "activation": "linear"}, "class_name": "Conv2D", "inbound_nodes": [[["activation_30", 0, 0, {}]]]}, {"name": "bn4c_branch2c", "config": {"epsilon": 0.001, "momentum": 0.99, "gamma_regularizer": null, "gamma_initializer": {"config": {}, "class_name": "Ones"}, "center": true, "beta_regularizer": null, "trainable": true, "moving_variance_initializer": {"config": {}, "class_name": "Ones"}, "scale": true, "axis": 3, "gamma_constraint": null, "beta_constraint": null, "name": "bn4c_branch2c", "beta_initializer": {"config": {}, "class_name": "Zeros"}, "moving_mean_initializer": {"config": {}, "class_name": "Zeros"}}, "class_name": "BatchNormalization", "inbound_nodes": [[["res4c_branch2c", 0, 0, {}]]]}, {"name": "add_10", "config": {"trainable": true, "name": "add_10"}, "class_name": "Add", "inbound_nodes": [[["bn4c_branch2c", 0, 0, {}], ["activation_28", 0, 0, {}]]]}, {"name": "activation_31", "config": {"trainable": true, "name": "activation_31", "activation": "relu"}, "class_name": "Activation", "inbound_nodes": [[["add_10", 0, 0, {}]]]}, {"name": "res4d_branch2a", "config": {"bias_initializer": {"config": {}, "class_name": "Zeros"}, "trainable": true, "kernel_regularizer": null, "activity_regularizer": null, "bias_regularizer": null, "filters": 256, "bias_constraint": null, "dilation_rate": [1, 1], "kernel_initializer": {"config": {"distribution": "uniform", "scale": 1.0, "mode": "fan_avg", "seed": null}, "class_name": "VarianceScaling"}, "kernel_size": [1, 1], "data_format": "channels_last", "kernel_constraint": null, "padding": "valid", "name": "res4d_branch2a", "strides": [1, 1], "use_bias": true, "activation": "linear"}, "class_name": "Conv2D", "inbound_nodes": [[["activation_31", 0, 0, {}]]]}, {"name": "bn4d_branch2a", "config": {"epsilon": 0.001, "momentum": 0.99, "gamma_regularizer": null, "gamma_initializer": {"config": {}, "class_name": "Ones"}, "center": true, "beta_regularizer": null, "trainable": true, "moving_variance_initializer": {"config": {}, "class_name": "Ones"}, "scale": true, "axis": 3, "gamma_constraint": null, "beta_constraint": null, "name": "bn4d_branch2a", "beta_initializer": {"config": {}, "class_name": "Zeros"}, "moving_mean_initializer": {"config": {}, "class_name": "Zeros"}}, "class_name": "BatchNormalization", "inbound_nodes": [[["res4d_branch2a", 0, 0, {}]]]}, {"name": "activation_32", "config": {"trainable": true, "name": "activation_32", "activation": "relu"}, "class_name": "Activation", "inbound_nodes": [[["bn4d_branch2a", 0, 0, {}]]]}, {"name": "res4d_branch2b", "config": {"bias_initializer": {"config": {}, "class_name": "Zeros"}, "trainable": true, "kernel_regularizer": null, "activity_regularizer": null, "bias_regularizer": null, "filters": 256, "bias_constraint": null, "dilation_rate": [1, 1], "kernel_initializer": {"config": {"distribution": "uniform", "scale": 1.0, "mode": "fan_avg", "seed": null}, "class_name": "VarianceScaling"}, "kernel_size": [3, 3], "data_format": "channels_last", "kernel_constraint": null, "padding": "same", "name": "res4d_branch2b", "strides": [1, 1], "use_bias": true, "activation": "linear"}, "class_name": "Conv2D", "inbound_nodes": [[["activation_32", 0, 0, {}]]]}, {"name": "bn4d_branch2b", "config": {"epsilon": 0.001, "momentum": 0.99, "gamma_regularizer": null, "gamma_initializer": {"config": {}, "class_name": "Ones"}, "center": true, "beta_regularizer": null, "trainable": true, "moving_variance_initializer": {"config": {}, "class_name": "Ones"}, "scale": true, "axis": 3, "gamma_constraint": null, "beta_constraint": null, "name": "bn4d_branch2b", "beta_initializer": {"config": {}, "class_name": "Zeros"}, "moving_mean_initializer": {"config": {}, "class_name": "Zeros"}}, "class_name": "BatchNormalization", "inbound_nodes": [[["res4d_branch2b", 0, 0, {}]]]}, {"name": "activation_33", "config": {"trainable": true, "name": "activation_33", "activation": "relu"}, "class_name": "Activation", "inbound_nodes": [[["bn4d_branch2b", 0, 0, {}]]]}, {"name": "res4d_branch2c", "config": {"bias_initializer": {"config": {}, "class_name": "Zeros"}, "trainable": true, "kernel_regularizer": null, "activity_regularizer": null, "bias_regularizer": null, "filters": 1024, "bias_constraint": null, "dilation_rate": [1, 1], "kernel_initializer": {"config": {"distribution": "uniform", "scale": 1.0, "mode": "fan_avg", "seed": null}, "class_name": "VarianceScaling"}, "kernel_size": [1, 1], "data_format": "channels_last", "kernel_constraint": null, "padding": "valid", "name": "res4d_branch2c", "strides": [1, 1], "use_bias": true, "activation": "linear"}, "class_name": "Conv2D", "inbound_nodes": [[["activation_33", 0, 0, {}]]]}, {"name": "bn4d_branch2c", "config": {"epsilon": 0.001, "momentum": 0.99, "gamma_regularizer": null, "gamma_initializer": {"config": {}, "class_name": "Ones"}, "center": true, "beta_regularizer": null, "trainable": true, "moving_variance_initializer": {"config": {}, "class_name": "Ones"}, "scale": true, "axis": 3, "gamma_constraint": null, "beta_constraint": null, "name": "bn4d_branch2c", "beta_initializer": {"config": {}, "class_name": "Zeros"}, "moving_mean_initializer": {"config": {}, "class_name": "Zeros"}}, "class_name": "BatchNormalization", "inbound_nodes": [[["res4d_branch2c", 0, 0, {}]]]}, {"name": "add_11", "config": {"trainable": true, "name": "add_11"}, "class_name": "Add", "inbound_nodes": [[["bn4d_branch2c", 0, 0, {}], ["activation_31", 0, 0, {}]]]}, {"name": "activation_34", "config": {"trainable": true, "name": "activation_34", "activation": "relu"}, "class_name": "Activation", "inbound_nodes": [[["add_11", 0, 0, {}]]]}, {"name": "res4e_branch2a", "config": {"bias_initializer": {"config": {}, "class_name": "Zeros"}, "trainable": true, "kernel_regularizer": null, "activity_regularizer": null, "bias_regularizer": null, "filters": 256, "bias_constraint": null, "dilation_rate": [1, 1], "kernel_initializer": {"config": {"distribution": "uniform", "scale": 1.0, "mode": "fan_avg", "seed": null}, "class_name": "VarianceScaling"}, "kernel_size": [1, 1], "data_format": "channels_last", "kernel_constraint": null, "padding": "valid", "name": "res4e_branch2a", "strides": [1, 1], "use_bias": true, "activation": "linear"}, "class_name": "Conv2D", "inbound_nodes": [[["activation_34", 0, 0, {}]]]}, {"name": "bn4e_branch2a", "config": {"epsilon": 0.001, "momentum": 0.99, "gamma_regularizer": null, "gamma_initializer": {"config": {}, "class_name": "Ones"}, "center": true, "beta_regularizer": null, "trainable": true, "moving_variance_initializer": {"config": {}, "class_name": "Ones"}, "scale": true, "axis": 3, "gamma_constraint": null, "beta_constraint": null, "name": "bn4e_branch2a", "beta_initializer": {"config": {}, "class_name": "Zeros"}, "moving_mean_initializer": {"config": {}, "class_name": "Zeros"}}, "class_name": "BatchNormalization", "inbound_nodes": [[["res4e_branch2a", 0, 0, {}]]]}, {"name": "activation_35", "config": {"trainable": true, "name": "activation_35", "activation": "relu"}, "class_name": "Activation", "inbound_nodes": [[["bn4e_branch2a", 0, 0, {}]]]}, {"name": "res4e_branch2b", "config": {"bias_initializer": {"config": {}, "class_name": "Zeros"}, "trainable": true, "kernel_regularizer": null, "activity_regularizer": null, "bias_regularizer": null, "filters": 256, "bias_constraint": null, "dilation_rate": [1, 1], "kernel_initializer": {"config": {"distribution": "uniform", "scale": 1.0, "mode": "fan_avg", "seed": null}, "class_name": "VarianceScaling"}, "kernel_size": [3, 3], "data_format": "channels_last", "kernel_constraint": null, "padding": "same", "name": "res4e_branch2b", "strides": [1, 1], "use_bias": true, "activation": "linear"}, "class_name": "Conv2D", "inbound_nodes": [[["activation_35", 0, 0, {}]]]}, {"name": "bn4e_branch2b", "config": {"epsilon": 0.001, "momentum": 0.99, "gamma_regularizer": null, "gamma_initializer": {"config": {}, "class_name": "Ones"}, "center": true, "beta_regularizer": null, "trainable": true, "moving_variance_initializer": {"config": {}, "class_name": "Ones"}, "scale": true, "axis": 3, "gamma_constraint": null, "beta_constraint": null, "name": "bn4e_branch2b", "beta_initializer": {"config": {}, "class_name": "Zeros"}, "moving_mean_initializer": {"config": {}, "class_name": "Zeros"}}, "class_name": "BatchNormalization", "inbound_nodes": [[["res4e_branch2b", 0, 0, {}]]]}, {"name": "activation_36", "config": {"trainable": true, "name": "activation_36", "activation": "relu"}, "class_name": "Activation", "inbound_nodes": [[["bn4e_branch2b", 0, 0, {}]]]}, {"name": "res4e_branch2c", "config": {"bias_initializer": {"config": {}, "class_name": "Zeros"}, "trainable": true, "kernel_regularizer": null, "activity_regularizer": null, "bias_regularizer": null, "filters": 1024, "bias_constraint": null, "dilation_rate": [1, 1], "kernel_initializer": {"config": {"distribution": "uniform", "scale": 1.0, "mode": "fan_avg", "seed": null}, "class_name": "VarianceScaling"}, "kernel_size": [1, 1], "data_format": "channels_last", "kernel_constraint": null, "padding": "valid", "name": "res4e_branch2c", "strides": [1, 1], "use_bias": true, "activation": "linear"}, "class_name": "Conv2D", "inbound_nodes": [[["activation_36", 0, 0, {}]]]}, {"name": "bn4e_branch2c", "config": {"epsilon": 0.001, "momentum": 0.99, "gamma_regularizer": null, "gamma_initializer": {"config": {}, "class_name": "Ones"}, "center": true, "beta_regularizer": null, "trainable": true, "moving_variance_initializer": {"config": {}, "class_name": "Ones"}, "scale": true, "axis": 3, "gamma_constraint": null, "beta_constraint": null, "name": "bn4e_branch2c", "beta_initializer": {"config": {}, "class_name": "Zeros"}, "moving_mean_initializer": {"config": {}, "class_name": "Zeros"}}, "class_name": "BatchNormalization", "inbound_nodes": [[["res4e_branch2c", 0, 0, {}]]]}, {"name": "add_12", "config": {"trainable": true, "name": "add_12"}, "class_name": "Add", "inbound_nodes": [[["bn4e_branch2c", 0, 0, {}], ["activation_34", 0, 0, {}]]]}, {"name": "activation_37", "config": {"trainable": true, "name": "activation_37", "activation": "relu"}, "class_name": "Activation", "inbound_nodes": [[["add_12", 0, 0, {}]]]}, {"name": "res4f_branch2a", "config": {"bias_initializer": {"config": {}, "class_name": "Zeros"}, "trainable": true, "kernel_regularizer": null, "activity_regularizer": null, "bias_regularizer": null, "filters": 256, "bias_constraint": null, "dilation_rate": [1, 1], "kernel_initializer": {"config": {"distribution": "uniform", "scale": 1.0, "mode": "fan_avg", "seed": null}, "class_name": "VarianceScaling"}, "kernel_size": [1, 1], "data_format": "channels_last", "kernel_constraint": null, "padding": "valid", "name": "res4f_branch2a", "strides": [1, 1], "use_bias": true, "activation": "linear"}, "class_name": "Conv2D", "inbound_nodes": [[["activation_37", 0, 0, {}]]]}, {"name": "bn4f_branch2a", "config": {"epsilon": 0.001, "momentum": 0.99, "gamma_regularizer": null, "gamma_initializer": {"config": {}, "class_name": "Ones"}, "center": true, "beta_regularizer": null, "trainable": true, "moving_variance_initializer": {"config": {}, "class_name": "Ones"}, "scale": true, "axis": 3, "gamma_constraint": null, "beta_constraint": null, "name": "bn4f_branch2a", "beta_initializer": {"config": {}, "class_name": "Zeros"}, "moving_mean_initializer": {"config": {}, "class_name": "Zeros"}}, "class_name": "BatchNormalization", "inbound_nodes": [[["res4f_branch2a", 0, 0, {}]]]}, {"name": "activation_38", "config": {"trainable": true, "name": "activation_38", "activation": "relu"}, "class_name": "Activation", "inbound_nodes": [[["bn4f_branch2a", 0, 0, {}]]]}, {"name": "res4f_branch2b", "config": {"bias_initializer": {"config": {}, "class_name": "Zeros"}, "trainable": true, "kernel_regularizer": null, "activity_regularizer": null, "bias_regularizer": null, "filters": 256, "bias_constraint": null, "dilation_rate": [1, 1], "kernel_initializer": {"config": {"distribution": "uniform", "scale": 1.0, "mode": "fan_avg", "seed": null}, "class_name": "VarianceScaling"}, "kernel_size": [3, 3], "data_format": "channels_last", "kernel_constraint": null, "padding": "same", "name": "res4f_branch2b", "strides": [1, 1], "use_bias": true, "activation": "linear"}, "class_name": "Conv2D", "inbound_nodes": [[["activation_38", 0, 0, {}]]]}, {"name": "bn4f_branch2b", "config": {"epsilon": 0.001, "momentum": 0.99, "gamma_regularizer": null, "gamma_initializer": {"config": {}, "class_name": "Ones"}, "center": true, "beta_regularizer": null, "trainable": true, "moving_variance_initializer": {"config": {}, "class_name": "Ones"}, "scale": true, "axis": 3, "gamma_constraint": null, "beta_constraint": null, "name": "bn4f_branch2b", "beta_initializer": {"config": {}, "class_name": "Zeros"}, "moving_mean_initializer": {"config": {}, "class_name": "Zeros"}}, "class_name": "BatchNormalization", "inbound_nodes": [[["res4f_branch2b", 0, 0, {}]]]}, {"name": "activation_39", "config": {"trainable": true, "name": "activation_39", "activation": "relu"}, "class_name": "Activation", "inbound_nodes": [[["bn4f_branch2b", 0, 0, {}]]]}, {"name": "res4f_branch2c", "config": {"bias_initializer": {"config": {}, "class_name": "Zeros"}, "trainable": true, "kernel_regularizer": null, "activity_regularizer": null, "bias_regularizer": null, "filters": 1024, "bias_constraint": null, "dilation_rate": [1, 1], "kernel_initializer": {"config": {"distribution": "uniform", "scale": 1.0, "mode": "fan_avg", "seed": null}, "class_name": "VarianceScaling"}, "kernel_size": [1, 1], "data_format": "channels_last", "kernel_constraint": null, "padding": "valid", "name": "res4f_branch2c", "strides": [1, 1], "use_bias": true, "activation": "linear"}, "class_name": "Conv2D", "inbound_nodes": [[["activation_39", 0, 0, {}]]]}, {"name": "bn4f_branch2c", "config": {"epsilon": 0.001, "momentum": 0.99, "gamma_regularizer": null, "gamma_initializer": {"config": {}, "class_name": "Ones"}, "center": true, "beta_regularizer": null, "trainable": true, "moving_variance_initializer": {"config": {}, "class_name": "Ones"}, "scale": true, "axis": 3, "gamma_constraint": null, "beta_constraint": null, "name": "bn4f_branch2c", "beta_initializer": {"config": {}, "class_name": "Zeros"}, "moving_mean_initializer": {"config": {}, "class_name": "Zeros"}}, "class_name": "BatchNormalization", "inbound_nodes": [[["res4f_branch2c", 0, 0, {}]]]}, {"name": "add_13", "config": {"trainable": true, "name": "add_13"}, "class_name": "Add", "inbound_nodes": [[["bn4f_branch2c", 0, 0, {}], ["activation_37", 0, 0, {}]]]}, {"name": "activation_40", "config": {"trainable": true, "name": "activation_40", "activation": "relu"}, "class_name": "Activation", "inbound_nodes": [[["add_13", 0, 0, {}]]]}, {"name": "res5a_branch2a", "config": {"bias_initializer": {"config": {}, "class_name": "Zeros"}, "trainable": true, "kernel_regularizer": null, "activity_regularizer": null, "bias_regularizer": null, "filters": 512, "bias_constraint": null, "dilation_rate": [1, 1], "kernel_initializer": {"config": {"distribution": "uniform", "scale": 1.0, "mode": "fan_avg", "seed": null}, "class_name": "VarianceScaling"}, "kernel_size": [1, 1], "data_format": "channels_last", "kernel_constraint": null, "padding": "valid", "name": "res5a_branch2a", "strides": [2, 2], "use_bias": true, "activation": "linear"}, "class_name": "Conv2D", "inbound_nodes": [[["activation_40", 0, 0, {}]]]}, {"name": "bn5a_branch2a", "config": {"epsilon": 0.001, "momentum": 0.99, "gamma_regularizer": null, "gamma_initializer": {"config": {}, "class_name": "Ones"}, "center": true, "beta_regularizer": null, "trainable": true, "moving_variance_initializer": {"config": {}, "class_name": "Ones"}, "scale": true, "axis": 3, "gamma_constraint": null, "beta_constraint": null, "name": "bn5a_branch2a", "beta_initializer": {"config": {}, "class_name": "Zeros"}, "moving_mean_initializer": {"config": {}, "class_name": "Zeros"}}, "class_name": "BatchNormalization", "inbound_nodes": [[["res5a_branch2a", 0, 0, {}]]]}, {"name": "activation_41", "config": {"trainable": true, "name": "activation_41", "activation": "relu"}, "class_name": "Activation", "inbound_nodes": [[["bn5a_branch2a", 0, 0, {}]]]}, {"name": "res5a_branch2b", "config": {"bias_initializer": {"config": {}, "class_name": "Zeros"}, "trainable": true, "kernel_regularizer": null, "activity_regularizer": null, "bias_regularizer": null, "filters": 512, "bias_constraint": null, "dilation_rate": [1, 1], "kernel_initializer": {"config": {"distribution": "uniform", "scale": 1.0, "mode": "fan_avg", "seed": null}, "class_name": "VarianceScaling"}, "kernel_size": [3, 3], "data_format": "channels_last", "kernel_constraint": null, "padding": "same", "name": "res5a_branch2b", "strides": [1, 1], "use_bias": true, "activation": "linear"}, "class_name": "Conv2D", "inbound_nodes": [[["activation_41", 0, 0, {}]]]}, {"name": "bn5a_branch2b", "config": {"epsilon": 0.001, "momentum": 0.99, "gamma_regularizer": null, "gamma_initializer": {"config": {}, "class_name": "Ones"}, "center": true, "beta_regularizer": null, "trainable": true, "moving_variance_initializer": {"config": {}, "class_name": "Ones"}, "scale": true, "axis": 3, "gamma_constraint": null, "beta_constraint": null, "name": "bn5a_branch2b", "beta_initializer": {"config": {}, "class_name": "Zeros"}, "moving_mean_initializer": {"config": {}, "class_name": "Zeros"}}, "class_name": "BatchNormalization", "inbound_nodes": [[["res5a_branch2b", 0, 0, {}]]]}, {"name": "activation_42", "config": {"trainable": true, "name": "activation_42", "activation": "relu"}, "class_name": "Activation", "inbound_nodes": [[["bn5a_branch2b", 0, 0, {}]]]}, {"name": "res5a_branch2c", "config": {"bias_initializer": {"config": {}, "class_name": "Zeros"}, "trainable": true, "kernel_regularizer": null, "activity_regularizer": null, "bias_regularizer": null, "filters": 2048, "bias_constraint": null, "dilation_rate": [1, 1], "kernel_initializer": {"config": {"distribution": "uniform", "scale": 1.0, "mode": "fan_avg", "seed": null}, "class_name": "VarianceScaling"}, "kernel_size": [1, 1], "data_format": "channels_last", "kernel_constraint": null, "padding": "valid", "name": "res5a_branch2c", "strides": [1, 1], "use_bias": true, "activation": "linear"}, "class_name": "Conv2D", "inbound_nodes": [[["activation_42", 0, 0, {}]]]}, {"name": "res5a_branch1", "config": {"bias_initializer": {"config": {}, "class_name": "Zeros"}, "trainable": true, "kernel_regularizer": null, "activity_regularizer": null, "bias_regularizer": null, "filters": 2048, "bias_constraint": null, "dilation_rate": [1, 1], "kernel_initializer": {"config": {"distribution": "uniform", "scale": 1.0, "mode": "fan_avg", "seed": null}, "class_name": "VarianceScaling"}, "kernel_size": [1, 1], "data_format": "channels_last", "kernel_constraint": null, "padding": "valid", "name": "res5a_branch1", "strides": [2, 2], "use_bias": true, "activation": "linear"}, "class_name": "Conv2D", "inbound_nodes": [[["activation_40", 0, 0, {}]]]}, {"name": "bn5a_branch2c", "config": {"epsilon": 0.001, "momentum": 0.99, "gamma_regularizer": null, "gamma_initializer": {"config": {}, "class_name": "Ones"}, "center": true, "beta_regularizer": null, "trainable": true, "moving_variance_initializer": {"config": {}, "class_name": "Ones"}, "scale": true, "axis": 3, "gamma_constraint": null, "beta_constraint": null, "name": "bn5a_branch2c", "beta_initializer": {"config": {}, "class_name": "Zeros"}, "moving_mean_initializer": {"config": {}, "class_name": "Zeros"}}, "class_name": "BatchNormalization", "inbound_nodes": [[["res5a_branch2c", 0, 0, {}]]]}, {"name": "bn5a_branch1", "config": {"epsilon": 0.001, "momentum": 0.99, "gamma_regularizer": null, "gamma_initializer": {"config": {}, "class_name": "Ones"}, "center": true, "beta_regularizer": null, "trainable": true, "moving_variance_initializer": {"config": {}, "class_name": "Ones"}, "scale": true, "axis": 3, "gamma_constraint": null, "beta_constraint": null, "name": "bn5a_branch1", "beta_initializer": {"config": {}, "class_name": "Zeros"}, "moving_mean_initializer": {"config": {}, "class_name": "Zeros"}}, "class_name": "BatchNormalization", "inbound_nodes": [[["res5a_branch1", 0, 0, {}]]]}, {"name": "add_14", "config": {"trainable": true, "name": "add_14"}, "class_name": "Add", "inbound_nodes": [[["bn5a_branch2c", 0, 0, {}], ["bn5a_branch1", 0, 0, {}]]]}, {"name": "activation_43", "config": {"trainable": true, "name": "activation_43", "activation": "relu"}, "class_name": "Activation", "inbound_nodes": [[["add_14", 0, 0, {}]]]}, {"name": "res5b_branch2a", "config": {"bias_initializer": {"config": {}, "class_name": "Zeros"}, "trainable": true, "kernel_regularizer": null, "activity_regularizer": null, "bias_regularizer": null, "filters": 512, "bias_constraint": null, "dilation_rate": [1, 1], "kernel_initializer": {"config": {"distribution": "uniform", "scale": 1.0, "mode": "fan_avg", "seed": null}, "class_name": "VarianceScaling"}, "kernel_size": [1, 1], "data_format": "channels_last", "kernel_constraint": null, "padding": "valid", "name": "res5b_branch2a", "strides": [1, 1], "use_bias": true, "activation": "linear"}, "class_name": "Conv2D", "inbound_nodes": [[["activation_43", 0, 0, {}]]]}, {"name": "bn5b_branch2a", "config": {"epsilon": 0.001, "momentum": 0.99, "gamma_regularizer": null, "gamma_initializer": {"config": {}, "class_name": "Ones"}, "center": true, "beta_regularizer": null, "trainable": true, "moving_variance_initializer": {"config": {}, "class_name": "Ones"}, "scale": true, "axis": 3, "gamma_constraint": null, "beta_constraint": null, "name": "bn5b_branch2a", "beta_initializer": {"config": {}, "class_name": "Zeros"}, "moving_mean_initializer": {"config": {}, "class_name": "Zeros"}}, "class_name": "BatchNormalization", "inbound_nodes": [[["res5b_branch2a", 0, 0, {}]]]}, {"name": "activation_44", "config": {"trainable": true, "name": "activation_44", "activation": "relu"}, "class_name": "Activation", "inbound_nodes": [[["bn5b_branch2a", 0, 0, {}]]]}, {"name": "res5b_branch2b", "config": {"bias_initializer": {"config": {}, "class_name": "Zeros"}, "trainable": true, "kernel_regularizer": null, "activity_regularizer": null, "bias_regularizer": null, "filters": 512, "bias_constraint": null, "dilation_rate": [1, 1], "kernel_initializer": {"config": {"distribution": "uniform", "scale": 1.0, "mode": "fan_avg", "seed": null}, "class_name": "VarianceScaling"}, "kernel_size": [3, 3], "data_format": "channels_last", "kernel_constraint": null, "padding": "same", "name": "res5b_branch2b", "strides": [1, 1], "use_bias": true, "activation": "linear"}, "class_name": "Conv2D", "inbound_nodes": [[["activation_44", 0, 0, {}]]]}, {"name": "bn5b_branch2b", "config": {"epsilon": 0.001, "momentum": 0.99, "gamma_regularizer": null, "gamma_initializer": {"config": {}, "class_name": "Ones"}, "center": true, "beta_regularizer": null, "trainable": true, "moving_variance_initializer": {"config": {}, "class_name": "Ones"}, "scale": true, "axis": 3, "gamma_constraint": null, "beta_constraint": null, "name": "bn5b_branch2b", "beta_initializer": {"config": {}, "class_name": "Zeros"}, "moving_mean_initializer": {"config": {}, "class_name": "Zeros"}}, "class_name": "BatchNormalization", "inbound_nodes": [[["res5b_branch2b", 0, 0, {}]]]}, {"name": "activation_45", "config": {"trainable": true, "name": "activation_45", "activation": "relu"}, "class_name": "Activation", "inbound_nodes": [[["bn5b_branch2b", 0, 0, {}]]]}, {"name": "res5b_branch2c", "config": {"bias_initializer": {"config": {}, "class_name": "Zeros"}, "trainable": true, "kernel_regularizer": null, "activity_regularizer": null, "bias_regularizer": null, "filters": 2048, "bias_constraint": null, "dilation_rate": [1, 1], "kernel_initializer": {"config": {"distribution": "uniform", "scale": 1.0, "mode": "fan_avg", "seed": null}, "class_name": "VarianceScaling"}, "kernel_size": [1, 1], "data_format": "channels_last", "kernel_constraint": null, "padding": "valid", "name": "res5b_branch2c", "strides": [1, 1], "use_bias": true, "activation": "linear"}, "class_name": "Conv2D", "inbound_nodes": [[["activation_45", 0, 0, {}]]]}, {"name": "bn5b_branch2c", "config": {"epsilon": 0.001, "momentum": 0.99, "gamma_regularizer": null, "gamma_initializer": {"config": {}, "class_name": "Ones"}, "center": true, "beta_regularizer": null, "trainable": true, "moving_variance_initializer": {"config": {}, "class_name": "Ones"}, "scale": true, "axis": 3, "gamma_constraint": null, "beta_constraint": null, "name": "bn5b_branch2c", "beta_initializer": {"config": {}, "class_name": "Zeros"}, "moving_mean_initializer": {"config": {}, "class_name": "Zeros"}}, "class_name": "BatchNormalization", "inbound_nodes": [[["res5b_branch2c", 0, 0, {}]]]}, {"name": "add_15", "config": {"trainable": true, "name": "add_15"}, "class_name": "Add", "inbound_nodes": [[["bn5b_branch2c", 0, 0, {}], ["activation_43", 0, 0, {}]]]}, {"name": "activation_46", "config": {"trainable": true, "name": "activation_46", "activation": "relu"}, "class_name": "Activation", "inbound_nodes": [[["add_15", 0, 0, {}]]]}, {"name": "res5c_branch2a", "config": {"bias_initializer": {"config": {}, "class_name": "Zeros"}, "trainable": true, "kernel_regularizer": null, "activity_regularizer": null, "bias_regularizer": null, "filters": 512, "bias_constraint": null, "dilation_rate": [1, 1], "kernel_initializer": {"config": {"distribution": "uniform", "scale": 1.0, "mode": "fan_avg", "seed": null}, "class_name": "VarianceScaling"}, "kernel_size": [1, 1], "data_format": "channels_last", "kernel_constraint": null, "padding": "valid", "name": "res5c_branch2a", "strides": [1, 1], "use_bias": true, "activation": "linear"}, "class_name": "Conv2D", "inbound_nodes": [[["activation_46", 0, 0, {}]]]}, {"name": "bn5c_branch2a", "config": {"epsilon": 0.001, "momentum": 0.99, "gamma_regularizer": null, "gamma_initializer": {"config": {}, "class_name": "Ones"}, "center": true, "beta_regularizer": null, "trainable": true, "moving_variance_initializer": {"config": {}, "class_name": "Ones"}, "scale": true, "axis": 3, "gamma_constraint": null, "beta_constraint": null, "name": "bn5c_branch2a", "beta_initializer": {"config": {}, "class_name": "Zeros"}, "moving_mean_initializer": {"config": {}, "class_name": "Zeros"}}, "class_name": "BatchNormalization", "inbound_nodes": [[["res5c_branch2a", 0, 0, {}]]]}, {"name": "activation_47", "config": {"trainable": true, "name": "activation_47", "activation": "relu"}, "class_name": "Activation", "inbound_nodes": [[["bn5c_branch2a", 0, 0, {}]]]}, {"name": "res5c_branch2b", "config": {"bias_initializer": {"config": {}, "class_name": "Zeros"}, "trainable": true, "kernel_regularizer": null, "activity_regularizer": null, "bias_regularizer": null, "filters": 512, "bias_constraint": null, "dilation_rate": [1, 1], "kernel_initializer": {"config": {"distribution": "uniform", "scale": 1.0, "mode": "fan_avg", "seed": null}, "class_name": "VarianceScaling"}, "kernel_size": [3, 3], "data_format": "channels_last", "kernel_constraint": null, "padding": "same", "name": "res5c_branch2b", "strides": [1, 1], "use_bias": true, "activation": "linear"}, "class_name": "Conv2D", "inbound_nodes": [[["activation_47", 0, 0, {}]]]}, {"name": "bn5c_branch2b", "config": {"epsilon": 0.001, "momentum": 0.99, "gamma_regularizer": null, "gamma_initializer": {"config": {}, "class_name": "Ones"}, "center": true, "beta_regularizer": null, "trainable": true, "moving_variance_initializer": {"config": {}, "class_name": "Ones"}, "scale": true, "axis": 3, "gamma_constraint": null, "beta_constraint": null, "name": "bn5c_branch2b", "beta_initializer": {"config": {}, "class_name": "Zeros"}, "moving_mean_initializer": {"config": {}, "class_name": "Zeros"}}, "class_name": "BatchNormalization", "inbound_nodes": [[["res5c_branch2b", 0, 0, {}]]]}, {"name": "activation_48", "config": {"trainable": true, "name": "activation_48", "activation": "relu"}, "class_name": "Activation", "inbound_nodes": [[["bn5c_branch2b", 0, 0, {}]]]}, {"name": "res5c_branch2c", "config": {"bias_initializer": {"config": {}, "class_name": "Zeros"}, "trainable": true, "kernel_regularizer": null, "activity_regularizer": null, "bias_regularizer": null, "filters": 2048, "bias_constraint": null, "dilation_rate": [1, 1], "kernel_initializer": {"config": {"distribution": "uniform", "scale": 1.0, "mode": "fan_avg", "seed": null}, "class_name": "VarianceScaling"}, "kernel_size": [1, 1], "data_format": "channels_last", "kernel_constraint": null, "padding": "valid", "name": "res5c_branch2c", "strides": [1, 1], "use_bias": true, "activation": "linear"}, "class_name": "Conv2D", "inbound_nodes": [[["activation_48", 0, 0, {}]]]}, {"name": "bn5c_branch2c", "config": {"epsilon": 0.001, "momentum": 0.99, "gamma_regularizer": null, "gamma_initializer": {"config": {}, "class_name": "Ones"}, "center": true, "beta_regularizer": null, "trainable": true, "moving_variance_initializer": {"config": {}, "class_name": "Ones"}, "scale": true, "axis": 3, "gamma_constraint": null, "beta_constraint": null, "name": "bn5c_branch2c", "beta_initializer": {"config": {}, "class_name": "Zeros"}, "moving_mean_initializer": {"config": {}, "class_name": "Zeros"}}, "class_name": "BatchNormalization", "inbound_nodes": [[["res5c_branch2c", 0, 0, {}]]]}, {"name": "add_16", "config": {"trainable": true, "name": "add_16"}, "class_name": "Add", "inbound_nodes": [[["bn5c_branch2c", 0, 0, {}], ["activation_46", 0, 0, {}]]]}, {"name": "activation_49", "config": {"trainable": true, "name": "activation_49", "activation": "relu"}, "class_name": "Activation", "inbound_nodes": [[["add_16", 0, 0, {}]]]}, {"name": "avg_pool", "config": {"pool_size": [7, 7], "strides": [7, 7], "padding": "valid", "trainable": true, "name": "avg_pool", "data_format": "channels_last"}, "class_name": "AveragePooling2D", "inbound_nodes": [[["activation_49", 0, 0, {}]]]}, {"name": "flatten_1", "config": {"trainable": true, "name": "flatten_1"}, "class_name": "Flatten", "inbound_nodes": [[["avg_pool", 0, 0, {}]]]}, {"name": "fc1000", "config": {"bias_initializer": {"config": {}, "class_name": "Zeros"}, "trainable": true, "kernel_regularizer": null, "activity_regularizer": null, "bias_regularizer": null, "bias_constraint": null, "kernel_initializer": {"config": {"distribution": "uniform", "scale": 1.0, "mode": "fan_avg", "seed": null}, "class_name": "VarianceScaling"}, "units": 1000, "kernel_constraint": null, "name": "fc1000", "use_bias": true, "activation": "softmax"}, "class_name": "Dense", "inbound_nodes": [[["flatten_1", 0, 0, {}]]]}], "output_layers": [["fc1000", 0, 0]]}, "class_name": "Model", "backend": "tensorflow"}